model/model.pth (torch, 17280 bytes, 4 tensors)

linear1.weight f4 [256, 11]
000000 eb 7d 18 3f 8c 90 2f 3e ce bf cd be fa 0c 85 be
       0.59567136 0.17144984 -0.40185398 -0.25986463
000010 0e c6 80 be 26 60 0e 3e dd a7 64 3e a9 c0 20 be
       -0.25151104 0.13903865 0.2232966 -0.15698494
000020 45 a8 4f 3d 3a 66 3e bf 02 b3 e7 be 02 ce c9 3e
       0.050697584 -0.74374735 -0.4525376 0.39414984
000030 05 b9 a6 3e 29 4e b6 3e c8 f7 03 bf 42 7f 7f be
       0.32563034 0.35606506 -0.5154996 -0.24950889
000040 cb 52 02 bf 11 9a 82 be c4 46 fd 3e 45 f2 79 3e
       -0.5090758 -0.25508168 0.49468052 0.24408825
000050 a0 e6 08 3f 02 01 91 3e 08 9c 89 be 41 21 e4 bd
       0.53476906 0.2832108 -0.26876855 -0.11139155
000060 e1 d9 c7 3d 15 01 22 be 4a 50 0a bd 14 3b b5 3d
       0.09758354 -0.15820725 -0.033767976 0.08849159
000070 c0 4b 2e bd 79 d9 37 be 10 f1 73 be d3 b6 94 be
       -0.04255271 -0.17954053 -0.23822427 -0.29045734
000080 1a 00 eb bc e9 78 ad 3d 60 eb bf be b4 21 95 be
       -0.028686572 0.084703274 -0.37484264 -0.29127276
000090 6b c7 b2 be 77 60 f0 3e 4c 66 86 be f3 7b b4 be
       -0.3491777 0.46948597 -0.2624992 -0.35250816
0000a0 b8 14 c6 be f6 11 d6 3e 65 16 ed be 80 6b a2 be
       -0.38687682 0.41810578 -0.46306148 -0.3172264
0000b0 e0 41 d1 bc e0 46 c4 bc 50 55 2a 3d 30 b1 3f bd
       -0.025544107 -0.023959577 0.041585267 -0.04679984
0000c0 6a dd 18 3e 04 f2 0d 3e 04 b0 8d 3d 00 9c 96 b9
       0.14928213 0.13861853 0.06918338 -0.0002872646
0000d0 f8 a9 28 be 92 43 e3 bd a0 52 8b 3c e0 16 8f bd
       -0.16471088 -0.110968724 0.017007172 -0.06986785
0000e0 7b f2 34 bb c4 77 e2 3d 1e 34 d1 be a0 43 7b 3c
       -0.002761035 0.11058 -0.40860075 0.015335947
0000f0 aa be e6 3e 77 b6 ff 3e bc 78 b8 3e ec 9d 2e bd
       0.4506734 0.49943897 0.36029613 -0.042631075
000100 e7 fa 68 bf 5f db 0c bf b6 a6 8a 3e 28 d1 d7 bd
       -0.91007847 -0.55022234 0.27080315 -0.1053794
000110 e1 c8 f0 3e ca af 33 bf b7 56 8c 3d d3 b3 49 be
       0.47028258 -0.7019011 0.06852477 -0.19697504
000120 d7 cc 12 3e d8 65 4c be 52 c6 1a bf b1 eb 12 be
       0.14335953 -0.19960725 -0.6045886 -0.14347722
000130 b6 62 65 3e 4d 1f 28 bf dd ba 8a 3e 72 ef 4e be
       0.22400936 -0.6567276 0.2709569 -0.20208529
000140 d2 58 6c bf 45 3a 29 3d b8 ec f0 3e 10 8f a4 be
       -0.9232303 0.041315336 0.47055602 -0.32140398
000150 98 0a aa be b1 d3 81 bf 22 5d f1 3e a0 d5 6f bf
       -0.33211207 -1.0142728 0.47141367 -0.9368534
000160 63 5b 38 3e bd b2 1c be 8b 53 10 bd d4 40 93 be
       0.18003611 -0.15302558 -0.035235923 -0.28760397
000170 a5 fb bb 3d 08 a9 af be 26 52 4d be 45 00 01 be
       0.09178857 -0.34308648 -0.20050868 -0.12597759
000180 77 ce 8d be 5f 47 09 3e 94 53 11 bd 9f 5d d0 be
       -0.27696583 0.13406132 -0.035480097 -0.40696427
000190 d8 25 8d be ee 13 1f 3f 47 23 35 3e 29 65 18 bf
       -0.27567935 0.62139785 0.17689238 -0.5952936
0001a0 50 c9 05 bd 77 15 5f 3e 0a 60 47 bd 85 93 26 bf
       -0.03266269 0.21785532 -0.048675574 -0.65068847
0001b0 3f 58 2c 3e 3a af 37 be 15 21 47 be f4 91 52 bd
       0.16830538 -0.17937937 -0.19446214 -0.051408723
0001c0 76 ac 8e bd fd 76 ef bd 84 e0 dc be 36 04 8a 3e
       -0.06966488 -0.11692617 -0.43140042 0.26956338
0001d0 69 68 de 3e 94 df 03 be 7b 43 8a 3e ee be 09 bf
       0.43439034 -0.12878257 0.2700461 -0.5380696
0001e0 f6 da 1d bf dd 5d d8 3c 5e 1e 20 3e 71 45 c4 be
       -0.6166223 0.026411945 0.15636584 -0.3833423
0001f0 8c eb 6f 3e d4 cb 18 bf 2a 21 11 bf 34 4b f8 3e
       0.23429698 -0.5968602 -0.5669123 0.48494875
000200 ac f9 ef 3b 56 32 2a bf 46 ec 36 bf 80 26 20 3d
       0.0073234644 -0.66483057 -0.71454275 0.039099216
000210 ab 3d 8d bc 4f e7 af bd 1e 89 85 3d 2a 41 c8 3e
       -0.01724132 -0.085890405 0.06520294 0.39112216
000220 28 fb 44 be 8a 7b 20 bf 4a 7b 8e 3d c9 bd 11 3f
       -0.19236434 -0.62688506 0.06957109 0.56930214
000230 e3 48 01 bf cf 8c 84 3d 99 e7 23 bf 4e f3 4d bd
       -0.5050184 0.064721696 -0.64025265 -0.05028086
000240 4d 02 6c bf 80 d9 ab be 1f e6 29 3f 54 1f 96 be
       -0.9219101 -0.33564377 0.6636676 -0.29320776
000250 7a a8 90 be 60 28 c8 be 47 9c c6 3e 7b 8d 00 bf
       -0.28253537 -0.39093304 0.38791105 -0.5021588
000260 9b 50 79 bb 69 ac 1c bf 56 c0 01 3f d1 b7 f4 bc
       -0.003804243 -0.6120058 0.50684106 -0.029872807
000270 66 b7 8b bd 6c 07 b2 3e 80 e2 49 bc fb cf 10 bc
       -0.0682209 0.34771287 -0.012322068 -0.008838649
000280 33 50 06 3c 19 74 c4 be b8 cc 98 bc 7c 18 d3 be
       0.008197832 -0.38369825 -0.018652305 -0.41229618
000290 8b 2c b5 bd db ea 76 3f 08 0d 07 bf df 8e 23 3f
       -0.088463865 0.9645211 -0.5275426 0.6388988
0002a0 cc 37 27 3e 28 54 2c be cb 46 27 3d bc 68 9e be
       0.16329879 -0.16828978 0.040838998 -0.3093928
0002b0 14 e8 f0 bd a8 60 92 3e 30 3e 61 3e 7e fa e5 3e
       -0.117630154 0.28589368 0.21996379 0.44917673
0002c0 de 5e ee be 44 26 49 bc 7f 9c b9 3d 94 9f b6 3e
       -0.46556753 -0.01227719 0.090630524 0.35668623
0002d0 d9 c0 a7 3e 82 cf 9d be 12 f6 aa be f4 33 76 bd
       0.3276432 -0.30822378 -0.33390862 -0.06010814
0002e0 36 70 49 3c 26 5a 68 bf 18 26 57 bf 61 ca 2b bf
       0.01229482 -0.90762556 -0.840425 -0.6710568
0002f0 73 39 a6 3d 3b cd 0e 3c c7 ab 0f bf 07 66 30 3d
       0.08116426 0.008715923 -0.56121486 0.04306605
000300 8b 6a ea 3e 89 f8 0c bf d8 95 6a be a2 4d 11 bf
       0.4578441 -0.55066735 -0.22908723 -0.56759083
000310 38 82 e9 3e 87 bc 04 bf 58 89 99 bd d3 2b f8 be
       0.45607162 -0.5185017 -0.07496899 -0.48470935
000320 84 d7 ea be 20 19 16 be 8d 2d 7e 3e 02 15 b2 be
       -0.4586755 -0.14658022 0.24822064 -0.34781653
000330 13 b9 0f be 11 0e 1a be 51 84 e6 be 7d 1f 92 3e
       -0.14035444 -0.15044428 -0.45022824 0.2853965
000340 3b 6e db be ff cf f3 3e 98 5e 4c 3f 90 96 7b be
       -0.42857537 0.47619626 0.7983184 -0.24569154
000350 c4 9c 47 be a2 6f b6 be 47 e3 43 be 61 4d a7 be
       -0.19493395 -0.35632044 -0.19129668 -0.32676223
000360 50 fa c1 3e 4b 6a 05 3f 6b 42 b2 3e ad d5 0a 3f
       0.37886286 0.52115315 0.34816298 0.54232293
000370 b8 c9 23 bc cb 7a fb be ea dd 33 3e d6 a8 93 be
       -0.009996824 -0.4911712 0.17565122 -0.2883975
000380 0f c7 3b be ee 3c 24 bf fd 29 7b be a1 43 d2 bb
       -0.18337654 -0.6415547 -0.24527736 -0.0064167534
000390 df 99 2f bc 0b 8e 34 3e ec 52 45 bc c5 af af 3e
       -0.010717838 0.1763231 -0.012043696 0.3431379
0003a0 fe 40 b8 be 8f 52 99 be 7a 02 09 bf dd f3 59 bf
       -0.35987085 -0.299458 -0.53519404 -0.8513773
0003b0 40 4e c5 3e e9 b9 33 3e 1c e8 09 3f c2 59 3d 3e
       0.38536263 0.17551388 0.53869796 0.18491271
0003c0 31 dc 92 be 7c 02 21 be 30 e7 f0 be 25 d0 84 3c
       -0.28683618 -0.15723604 -0.47051382 0.016212532
0003d0 a0 bd 6b 3f 33 84 8e 3d 50 3c 50 bd db bc 0a bf
       0.9208622 0.06958809 -0.05083877 -0.5419442
0003e0 a4 3d fb 3d b9 42 af 3e ad 90 04 3d 4e 5c cc be
       0.122676164 0.34230593 0.032364536 -0.39914173
0003f0 60 45 8d be 33 be 73 be 2d fb d2 bd 2a 5e 26 bd
       -0.2759199 -0.23803024 -0.10301814 -0.040617146

linear1.bias f4 [256]
000000 e9 9f bf bd 18 37 d1 be f9 bd 27 be c1 9c 51 be
       -0.09356672 -0.40862346 -0.16381063 -0.20469953
000010 7e 21 80 be ae 49 16 be 9f d9 b8 3d 14 ca 07 3e
       -0.25025553 -0.14676544 0.09025883 0.1326068
000020 63 55 e5 be 59 3a ef 3e c3 7a 77 3e 72 3b 91 3e
       -0.44791707 0.46724203 0.24167924 0.28365666
000030 1d b2 fd bc cc f8 80 be d0 03 f2 bc b0 76 67 be
       -0.03096872 -0.25189817 -0.029542834 -0.2260387
000040 97 5b b4 3e 71 9c 0a bd cd 5d 5e be 41 e5 13 be
       0.35226128 -0.0338406 -0.2171547 -0.14442922
000050 f2 b1 64 be e3 90 fc bd a7 f7 ca bd ee e2 c7 3d
       -0.22333506 -0.123323224 -0.09910517 0.0976008
000060 e3 95 9d be ac 4d b5 be 56 9d 32 3e 11 bb e2 3d
       -0.30778417 -0.3541082 0.17442831 0.11070836
000070 a3 28 fd 3d 95 d4 fb 3d 67 bb af be 71 9b d7 bd
       0.123612665 0.12296406 -0.34322664 -0.10527695
000080 99 53 06 3d 92 f1 91 3e 75 84 00 bf e7 36 ab 3d
       0.03279457 0.28504616 -0.50202113 0.08360081
000090 4e 4b 2e be 7b 51 32 be 96 5a eb 3d 47 af 26 bf
       -0.17020914 -0.17413895 0.11491887 -0.651112
0000a0 4f cb d3 3d 79 0a 25 bf e5 85 08 3f d8 c4 2f be
       0.103415124 -0.64469105 0.53329307 -0.17164934
0000b0 27 57 3c 3c 8c 4d 8b be 64 d1 f2 be 97 e0 13 3e
       0.011495388 -0.272076 -0.47425377 0.14441143
0000c0 c2 11 9c be 08 eb 7c be b8 cc b1 be e6 ca e4 be
       -0.30482298 -0.24699032 -0.347265 -0.4468605
0000d0 79 5c 49 3f 45 9a 93 be 63 d7 9d bd 25 be d9 be
       0.7865673 -0.28828636 -0.077070974 -0.4252788
0000e0 c2 44 ec bd 7d 61 01 bf 84 e0 d8 bd 16 c3 33 be
       -0.11536552 -0.5053938 -0.10589698 -0.17554888
0000f0 43 59 29 be c7 39 ff bd 68 83 ee be 22 e8 59 3e
       -0.16537957 -0.12462192 -0.4658463 0.21279958
000100 e9 09 f7 be 03 4b 91 3e 5a 65 ee 3d 4d 29 e3 bd
       -0.48249748 0.28377542 0.11640425 -0.11091862
000110 8d 62 e6 3d 70 b3 df be 29 ec 19 3e 18 93 f1 3d
       0.11249266 -0.43691587 0.15031494 0.11795634
000120 e7 cc dd be 26 b2 e0 3d fe b4 72 3c 94 87 a9 3e
       -0.4332039 0.10971479 0.01481366 0.3311125
000130 04 98 2e be 13 8f f8 3e d0 f9 a2 bc c2 4f ba be
       -0.17050177 0.48546657 -0.01989451 -0.36388975
000140 42 42 a0 3e dd 53 1c be 78 74 92 be 02 49 19 bf
       0.3130055 -0.15266366 -0.28604484 -0.59877026
000150 14 8f 9e bd 64 45 62 3e 14 f7 2f bf 9b 9f cd bd
       -0.07742134 0.22096783 -0.68736386 -0.10040208
000160 97 56 99 ba cd a1 b5 be 3f a2 3f be 98 27 66 be
       -0.0011698779 -0.35475007 -0.18714236 -0.22476041
000170 d8 49 46 be 52 29 7f be 28 d1 d6 bd b5 46 39 3f
       -0.19364107 -0.24918106 -0.10489112 0.72373515
000180 27 0b 23 3e f4 91 c1 3c ba b1 d2 be 62 26 b5 be
       0.15922223 0.023629166 -0.4115122 -0.35380846
000190 e1 3a 4f be d3 b4 1e be 27 0f 8d be c9 9e 98 3e
       -0.20237304 -0.15498666 -0.27550623 0.29808643
0001a0 25 18 8c be 31 f6 10 3e f8 be eb bb 38 53 d5 3e
       -0.2736217 0.14156415 -0.007194396 0.41665053
0001b0 55 a8 9c 3d e3 ed c2 be a1 64 af 3e ae 88 57 bd
       0.07649294 -0.38072118 0.3425646 -0.052620582
0001c0 a3 99 89 be 4e e9 71 be 16 91 80 3d b7 1f 30 bf
       -0.26875028 -0.23624155 0.06277673 -0.68798393
0001d0 4e 3b aa be 30 4f 82 bd 78 d2 c7 be bb c1 85 be
       -0.3324837 -0.0636276 -0.39027762 -0.26124367
0001e0 6d 26 28 be fd fb ed be dd 96 0c bf e4 33 61 be
       -0.16420908 -0.46481314 -0.549177 -0.21992451
0001f0 12 39 19 bf 44 2c 8c 3d 45 90 a3 be 80 3f 82 3e
       -0.5985271 0.068443805 -0.31946006 0.25439072
000200 ab 7e 75 3e 1c 45 5a 3c 95 0a b7 3d 73 07 3f be
       0.23974101 0.013322141 0.08937565 -0.18655185
000210 8f ab 79 3d 18 78 24 bf 9e 45 8e be 67 50 f5 bd
       0.060954627 -0.6424575 -0.2778749 -0.11978226
000220 c2 8d 01 3e 01 79 04 3e 8b 15 da 3d ec 7b 84 be
       0.12651733 0.12936784 0.1064864 -0.25875795
000230 d2 d5 4e 3e 16 36 5b 3e ae 0a 5f be 99 be 20 bf
       0.20198753 0.21407351 -0.21781418 -0.6279083
000240 46 6b 1c 3e eb 51 91 3e 57 06 68 3a 3c bc 3e be
       0.15275297 0.2838281 0.00088510424 -0.18626493
000250 a3 3e 8b be a1 c3 c7 bd de bb 16 bd 41 53 7d be
       -0.27196226 -0.0975411 -0.036800258 -0.2473879
000260 82 47 6a 3f 56 72 e2 be b9 00 9c bc e8 83 8a 3d
       0.9151536 -0.44227856 -0.019043313 0.0676344
000270 cc 55 06 bf 9b 80 57 be 26 f9 88 bc ef a2 ac be
       -0.52474666 -0.21045153 -0.016720366 -0.33718058
000280 dd ae 98 3e 73 0e 5c 3e c0 ed f4 bd 28 2c 1e 3c
       0.2982091 0.21489887 -0.1195941 0.009654082
000290 a6 dc 9b bd c1 2c a3 3c 63 36 19 bf fc 82 d6 bd
       -0.07610445 0.019918801 -0.5984861 -0.10474202
0002a0 2a a7 5d be d9 25 b8 3d 6f ce 95 be 7d 09 1d bf
       -0.216458 0.08991594 -0.2925906 -0.613426
0002b0 8d 55 4f be 37 ad e6 3d cf 3f e3 be 66 30 09 bd
       -0.20247479 0.11263507 -0.4438462 -0.033493422
0002c0 1b da 9c 3d 1f c3 15 3c 64 c6 af be b0 b1 37 3e
       0.07658788 0.009140759 -0.34331048 0.17938876
0002d0 43 5c e7 3d 27 2f 1c be 6c 16 2a be 34 98 91 be
       0.112968944 -0.15252362 -0.16610116 -0.28436434
0002e0 08 2d e6 be 6a cd 84 be 06 75 99 3e a5 c6 2e bd
       -0.4495623 -0.25937968 0.29972094 -0.04266991
0002f0 5f 67 22 be a1 f1 7b 3e 48 3b d7 be 6e ba 87 be
       -0.15859745 0.24603893 -0.42037416 -0.26509422
000300 4f 56 f8 3d 27 c3 b0 3e e1 51 11 be cb c9 0a be
       0.12125837 0.3452389 -0.1419139 -0.1355354
000310 3d 83 00 3f 47 8f b4 be 60 1e 04 3f a0 d9 1c bf
       0.50200254 -0.35265562 0.5160885 -0.6126957
000320 21 3b 71 3d ff 0b bd bd 51 3d 6c be 95 fe 67 be
       0.05889428 -0.09230804 -0.23070265 -0.22655709
000330 28 d3 d7 be 95 ca ff 3e c9 24 d9 be 77 a0 dc bc
       -0.42153287 0.49959245 -0.42410877 -0.026931984
000340 45 6b 8c bd 13 72 35 3e 1d f1 b8 be ff ad 23 be
       -0.068563975 0.17719297 -0.36121455 -0.15984343
000350 be 42 9e be 19 0e 8c bd 00 9f 74 be 67 60 6c be
       -0.30910295 -0.068386264 -0.23888779 -0.2308365
000360 67 6f 96 be 60 1f 71 3e 3a 46 8a be 2c 25 c4 be
       -0.29381868 0.23547125 -0.27006704 -0.3830961
000370 1b 32 e2 be e5 86 50 bd 42 fc 6a 3e dd 72 f4 be
       -0.44178852 -0.050909895 0.22947791 -0.47743884
000380 f9 36 00 bf 4b b1 af bc be 4c a1 be 5b d7 a4 be
       -0.5008388 -0.021446845 -0.31503862 -0.32195553
000390 cf 37 09 be 11 cc 9c be 25 bf ef 3d 0d a8 86 be
       -0.13400196 -0.3062444 0.1170638 -0.26300088
0003a0 e0 20 0f 3e f0 49 43 bd 9d 05 70 be f0 6e bb be
       0.13977385 -0.047677934 -0.23439641 -0.36608076
0003b0 34 03 19 be 72 fa 82 3d de 7e 53 3e 68 dc 9b be
       -0.14942628 0.06395425 0.20653865 -0.30441594
0003c0 f9 42 d2 bd 0e 7c e7 3e c0 7d be bd 0a 8f 25 3e
       -0.1026668 0.45211834 -0.09301329 0.16167846
0003d0 25 e0 63 3e 46 4f af bd ab 4f e9 be ae 6a fe 3b
       0.22253473 -0.08560042 -0.45568594 0.007764182
0003e0 81 19 a3 be 36 6a 31 be f0 80 8b be 82 e8 3f be
       -0.31855395 -0.17325673 -0.2724681 -0.18741038
0003f0 e9 90 c1 be 25 9f c0 bd db 84 dc bd 39 2b 72 be
       -0.3780587 -0.094053544 -0.10767528 -0.236493

linear2.weight f4 [3, 256]
000000 ad 53 cc be a3 8d 0d be 3f a2 83 3d 4e 6e 76 3e
       -0.3990759 -0.13823561 0.0642743 0.24065515
000010 e0 87 94 3c ef 37 ed be 85 0a 00 3e 3a d6 d0 3e
       0.018131196 -0.46331736 0.12504013 0.40788442
000020 99 d1 3b 3e 8c 62 80 3e f5 98 05 be 85 f2 a6 3e
       0.18341674 0.25075185 -0.1304663 0.32606903
000030 01 64 64 3e 61 b1 ad 3e 63 41 39 bd b3 26 e1 bd
       0.22303773 0.33924392 -0.045228373 -0.109937094
000040 43 a3 f5 3e af 81 9a 3e a2 70 30 be 8b e6 5f be
       0.4797612 0.30177066 -0.17230466 -0.21865289
000050 ab f0 7b bc b3 8e 28 be a7 a5 b3 3c 90 dd 0d 3f
       -0.015377204 -0.16460685 0.021929575 0.554162
000060 e3 8c 3c bd 2c 8b 67 bd 42 f6 69 3e 29 2a cf 3e
       -0.046032798 -0.05652921 0.22847846 0.40461853
000070 c9 d9 ad be 34 7b c1 3e ea f1 aa bd b7 50 fb 3d
       -0.3395522 0.3778931 -0.08346923 0.122712545
000080 ea cf fb be 76 7e 87 3e e3 01 9b 3d 66 e6 a8 be
       -0.49182063 0.2646367 0.07568719 -0.3298828
000090 37 02 d2 bd b0 89 c8 bd 3c d0 89 3e 03 b6 2f be
       -0.10254329 -0.09791887 0.26916683 -0.17159276
0000a0 80 d0 08 bf 5e a4 40 bb 9c d4 bc 3e fa a3 86 be
       -0.53443146 -0.0029394845 0.36880958 -0.2629698
0000b0 9d 9b fc 3b d4 a3 d8 3b 38 fc 5c 3d c1 e1 fa 3e
       0.0077089802 0.0066113267 0.053951472 0.49000362
0000c0 e9 58 87 bc db 99 c4 3b f0 5b 3b be c4 a6 2f 3e
       -0.016521888 0.0059997863 -0.1829679 0.1715346
0000d0 87 f7 8b 3e 04 4c 01 be 5b 87 ce 3e 48 74 fa 3c
       0.27337286 -0.12626654 0.40337643 0.030573025
0000e0 6b 3b 3f bf 8d b6 21 be bc 0a eb 3b ae 6e dd bd
       -0.7470004 -0.15792294 0.0071729105 -0.10812126
0000f0 ed 90 20 be 2d 2a c6 3a 0f 47 18 bc b6 f8 a2 3e
       -0.15680285 0.001511877 -0.009294285 0.31830376
000100 e0 3a 49 be 1a e3 e9 3d b1 1a f1 3c fe 6a d1 3d
       -0.19651365 0.11420269 0.029431673 0.10225485
000110 c7 8c ca 3e e4 8f e4 bd db 86 8d 3e e3 53 1b 3e
       0.3956053 -0.111602575 0.2764195 0.15168719
000120 b0 9d 8a 3c 42 49 a9 be 2a 57 3c 3f 53 17 32 be
       0.016920894 -0.33063704 0.735705 -0.1739171
000130 5a 13 06 3e a6 04 58 3e b0 9e a7 3e 4a f5 36 3d
       0.1309332 0.21095523 0.32738256 0.04466752
000140 f7 72 1b 3f 09 58 57 bd f1 41 b7 be 8c c1 be bd
       0.607223 -0.05257419 -0.35792497 -0.0931426
000150 54 82 54 be ef c2 d8 3e 7e 8f 08 bd bb 4f 97 3e
       -0.20752841 0.42336223 -0.03333997 0.29553017
000160 e1 fc d2 3d 9c 56 ed 3d 16 70 95 be fd 6e 08 be
       0.10302139 0.11588785 -0.29187077 -0.13323589
000170 df de e1 be f1 23 96 bb a9 72 46 bf 39 47 da 3e
       -0.4411535 -0.0045819213 -0.7751871 0.42632464
000180 46 b4 5c be 27 3b 30 3e 72 3f 9b be e7 62 dd bd
       -0.21553144 0.17210065 -0.30321842 -0.1080988
000190 e1 13 ba bb 59 37 de be 90 d1 e7 bd 4d 1f d7 3e
       -0.0056786393 -0.43401602 -0.11319268 0.42016068
0001a0 ff d6 ad 39 a2 3c 6b 3e 4d 2b 3c bd eb ca c4 3e
       0.00033157316 0.22972348 -0.045939732 0.38436064
0001b0 ea fb 96 be cf c4 03 3b 10 de ad be ef bd bb 3c
       -0.2948907 0.002010632 -0.33958483 0.022917716
0001c0 93 fe 44 bd e4 35 b9 be 8e 61 aa 3e 44 82 c2 3b
       -0.048094343 -0.36173928 0.33277553 0.005935939
0001d0 52 1b 90 bc 52 8b 00 3e 0d d0 d8 3c 3c 2e e8 bb
       -0.017591152 0.12553146 0.026466394 -0.0070855897
0001e0 3b 5e 8c bd f6 1b 3e be 6b f9 ba 3c 09 d2 75 be
       -0.068539105 -0.18565354 0.02282401 -0.24005903
0001f0 62 1a 00 be 85 07 d4 3e 98 77 06 3d c1 d6 f2 3e
       -0.12510064 0.41411987 0.032828897 0.4742947
000200 9d b9 ae 3e 44 e1 54 3d 82 3f 18 3e 46 ef 81 3d
       0.34125987 0.051972643 0.14867976 0.06344466
000210 26 28 b4 3d 38 12 08 bd 26 66 62 bd 8f c9 e1 bd
       0.0879672 -0.0332205 -0.055273198 -0.110247724
000220 2a 18 a3 3e 0c 48 dd 3e cf 0d b4 3e c1 4c 9c bd
       0.31854373 0.4321903 0.35166785 -0.07631827
000230 84 58 d8 3d f2 f7 83 3e 71 ff 4d be ef 29 0a bd
       0.10563758 0.25775105 -0.20116974 -0.033731397
000240 51 e1 1e 3f 63 19 ee 3e 2c 3d 8f 3e 2a 0a e4 3d
       0.62062556 0.46503744 0.27976358 0.11134751
000250 a8 a4 c5 3b 26 87 26 be 1b d6 aa 3e 01 b4 26 bd
       0.0060315914 -0.16262493 0.33366475 -0.04069901
000260 2c e7 cb 3e ef 70 cb 3c c9 e4 8b 3d 4b 54 1c be
       0.39824808 0.024834124 0.06830747 -0.1526653
000270 51 54 54 39 9e 2b 1a bd 41 ad c3 be 3e 26 68 3c
       0.00020249306 -0.037639253 -0.3821812 0.014169274
000280 fe 44 8f 3e dd 51 a2 be be bb a1 3d a2 da e6 be
       0.27982324 -0.31703082 0.07897137 -0.4508868
000290 2e 0e 37 bf 44 ae a1 bd 60 15 35 bc 2b 8c 4c be
       -0.7150601 -0.07894567 -0.0110524595 -0.19975345
0002a0 8c 0c 11 be 9c df 7b 3c d3 63 5c be 08 b4 88 bd
       -0.14164943 0.015373137 -0.21522455 -0.06674963
0002b0 17 94 70 3d 70 fe cc 3d e5 5b d5 bc a4 54 1a bf
       0.05873498 0.100094676 -0.026044795 -0.602854
0002c0 f3 63 df 3d a2 40 91 be 54 5b 67 3b a2 4d 8e 3e
       0.10907736 -0.28369623 0.0035302239 0.27793604
0002d0 fb 14 a9 3e ea 8a 78 bd ea 13 0e bb 26 a7 a1 3c
       0.3302382 -0.060679354 -0.002167935 0.019733023
0002e0 5d fb 7b be f8 4c 60 3d f3 b1 21 3f 5a af 69 3c
       -0.24607606 0.054760903 0.63162154 0.0142629985
0002f0 5d 88 d3 bc e8 9b 00 3e 93 e7 a6 bd 88 79 5a 3c
       -0.025821859 0.12559474 -0.08149638 0.013334639
000300 1e c5 0d 3f 4e ff aa 3e 04 ed 66 34 26 f2 04 bc
       0.553789 0.33397907 2.1506645e-07 -0.008114373
000310 da 91 5d 3e 90 08 e9 3c 82 a4 c7 3d 68 65 e8 3d
       0.21637669 0.028446466 0.09748174 0.11347467
000320 01 ab 0f 3f 7e e3 6b bc 9e 80 99 3b 29 43 27 ba
       0.56120306 -0.0143975 0.004684522 -0.0006380552
000330 32 2b c4 3c 2b 48 00 3f 13 58 01 3e 2a ce 7d 3c
       0.023946378 0.5011012 0.12631254 0.015491048
000340 a2 43 2a bd 90 86 cf 3d 48 36 cc bc 74 8c 2f 3e
       -0.041568406 0.10133088 -0.024928227 0.17143422
000350 ae 4e b1 3c 9d 93 f5 be 74 e4 dc 3d 5d 72 f0 be
       0.021643963 -0.47964182 0.107857615 -0.46962252
000360 13 ee 9a bd 28 ca 98 3e 38 f3 9d 3c ae 3c bc bc
       -0.0756494 0.29841733 0.019281015 -0.022978153
000370 d9 bc c7 3d 94 fa a7 3c 5a de 3d 3e 80 c1 52 bc
       0.09752817 0.020505227 0.18541852 -0.012863517
000380 d3 bf 96 3b c3 c9 bd be ea 95 50 bd 68 cc 08 bc
       0.004600504 -0.37067994 -0.05092422 -0.0083495155
000390 9d 09 f9 3d 92 85 f8 bb 22 cf c8 3e 37 f6 f3 bb
       0.12160037 -0.007584282 0.3922053 -0.0074451226
0003a0 13 0a ec 3e 76 72 8f be 49 d1 d8 be 3e 71 e5 3c
       0.46101436 -0.28017014 -0.42347172 0.0280081
0003b0 6a bb bd 3e 41 2e a9 be b0 1f 15 3f e2 35 69 bd
       0.37057048 -0.330431 0.58251476 -0.056936152
0003c0 2a 20 8e be 4b 7c ae 3e 32 b8 33 3e c9 d6 fb be
       -0.27758914 0.34079203 0.17550734 -0.49187306
0003d0 c5 21 aa 3e 1f d1 b1 bb 83 8b 93 bc 4e 07 a5 bb
       0.3322889 -0.0054265405 -0.01801086 -0.005036271
0003e0 ae a9 87 bb ce 50 f1 3d e1 4a f0 39 74 63 1f be
       -0.0041401004 0.117829904 0.00045832156 -0.15565282
0003f0 d9 aa 2f bc b9 6b 30 bf 9f 86 c2 bd 5b 97 a9 bd
       -0.010721886 -0.6891437 -0.09498333 -0.08280822

linear2.bias f4 [3]
000000 01 e0 a9 3e fd c6 e3 ba 62 0b 0d 3c
       0.33178714 -0.0017378029 0.008608671
